…
    "generator = Model(inputs=[z, labels], outputs=generator, name='generator')"
   ]
  },
  {
   "cell_type": "code",
   "execution_count": 11,
   "metadata": {},
   "outputs": [
    {
     "name": "stdout",
     "output_type": "stream",
     "text": [
      "__________________________________________________________________________________________________\n",
      "Layer (type)                    Output Shape         Param #     Connected to                     \n",
      "==================================================================================================\n",
      "input_1 (InputLayer)            (None, 100)          0                                            \n",
      "__________________________________________________________________________________________________\n",
      "input_2 (InputLayer)            (None, 10)           0                                            \n",
      "__________________________________________________________________________________________________\n",
      "concatenate_1 (Concatenate)     (None, 110)          0           input_1[0][0]                    \n",
      "                                                                 input_2[0][0]                    \n",
      "__________________________________________________________________________________________________\n",
      "dense_1 (Dense)                 (None, 2048)         227328      concatenate_1[0][0]              \n",
      "__________________________________________________________________________________________________\n",
      "batch_normalization_1 (BatchNor (None, 2048)         8192        dense_1[0][0]                    \n",
      "__________________________________________________________________________________________________\n",
      "leaky_re_lu_1 (LeakyReLU)       (None, 2048)         0           batch_normalization_1[0][0]      \n",
      "__________________________________________________________________________________________________\n",
      "reshape_1 (Reshape)             (None, 2, 2, 512)    0           leaky_re_lu_1[0][0]              \n",
      "__________________________________________________________________________________________________\n",
      "conv2d_transpose_1 (Conv2DTrans (None, 4, 4, 256)    3277056     reshape_1[0][0]                  \n",
      "__________________________________________________________________________________________________\n",
      "batch_normalization_2 (BatchNor (None, 4, 4, 256)    1024        conv2d_transpose_1[0][0]         \n",
      "__________________________________________________________________________________________________\n",
      "leaky_re_lu_2 (LeakyReLU)       (None, 4, 4, 256)    0           batch_normalization_2[0][0]      \n",
      "__________________________________________________________________________________________________\n",
      "conv2d_transpose_2 (Conv2DTrans (None, 8, 8, 128)    819328      leaky_re_lu_2[0][0]              \n",
      "__________________________________________________________________________________________________\n",
      "batch_normalization_3 (BatchNor (None, 8, 8, 128)    512         conv2d_transpose_2[0][0]         \n",
      "__________________________________________________________________________________________________\n",
      "leaky_re_lu_3 (LeakyReLU)       (None, 8, 8, 128)    0           batch_normalization_3[0][0]      \n",
      "__________________________________________________________________________________________________\n",
      "conv2d_transpose_3 (Conv2DTrans (None, 16, 16, 64)   204864      leaky_re_lu_3[0][0]              \n",
      "__________________________________________________________________________________________________\n",
      "batch_normalization_4 (BatchNor (None, 16, 16, 64)   256         conv2d_transpose_3[0][0]         \n",
      "__________________________________________________________________________________________________\n",
      "leaky_re_lu_4 (LeakyReLU)       (None, 16, 16, 64)   0           batch_normalization_4[0][0]      \n",
      "__________________________________________________________________________________________________\n",
      "conv2d_transpose_4 (Conv2DTrans (None, 32, 32, 3)    4803        leaky_re_lu_4[0][0]              \n",
      "==================================================================================================\n",
      "Total params: 4,543,363\n",
      "Trainable params: 4,538,371\n",
      "Non-trainable params: 4,992\n",
      "__________________________________________________________________________________________________\n"
     ]
    }
   ],
   "source": [
…
    "discriminator = Model(inputs=[img_input, labels], outputs=discriminator, name='discriminator')"
   ]
  },
  {
   "cell_type": "code",
   "execution_count": 13,
   "metadata": {},
   "outputs": [
    {
     "name": "stdout",
     "output_type": "stream",
     "text": [
      "__________________________________________________________________________________________________\n",
      "Layer (type)                    Output Shape         Param #     Connected to                     \n",
      "==================================================================================================\n",
      "input_3 (InputLayer)            (None, 32, 32, 3)    0                                            \n",
      "__________________________________________________________________________________________________\n",
      "conv2d_1 (Conv2D)               (None, 16, 16, 64)   4864        input_3[0][0]                    \n",
      "__________________________________________________________________________________________________\n",
      "batch_normalization_5 (BatchNor (None, 16, 16, 64)   256         conv2d_1[0][0]                   \n",
      "__________________________________________________________________________________________________\n",
      "leaky_re_lu_5 (LeakyReLU)       (None, 16, 16, 64)   0           batch_normalization_5[0][0]      \n",
      "__________________________________________________________________________________________________\n",
      "conv2d_2 (Conv2D)               (None, 8, 8, 128)    204928      leaky_re_lu_5[0][0]              \n",
      "__________________________________________________________________________________________________\n",
      "batch_normalization_6 (BatchNor (None, 8, 8, 128)    512         conv2d_2[0][0]                   \n",
      "__________________________________________________________________________________________________\n",
      "leaky_re_lu_6 (LeakyReLU)       (None, 8, 8, 128)    0           batch_normalization_6[0][0]      \n",
      "__________________________________________________________________________________________________\n",
      "conv2d_3 (Conv2D)               (None, 4, 4, 256)    819456      leaky_re_lu_6[0][0]              \n",
      "__________________________________________________________________________________________________\n",
      "batch_normalization_7 (BatchNor (None, 4, 4, 256)    1024        conv2d_3[0][0]                   \n",
      "__________________________________________________________________________________________________\n",
      "leaky_re_lu_7 (LeakyReLU)       (None, 4, 4, 256)    0           batch_normalization_7[0][0]      \n",
      "__________________________________________________________________________________________________\n",
      "conv2d_4 (Conv2D)               (None, 2, 2, 512)    3277312     leaky_re_lu_7[0][0]              \n",
      "__________________________________________________________________________________________________\n",
      "batch_normalization_8 (BatchNor (None, 2, 2, 512)    2048        conv2d_4[0][0]                   \n",
      "__________________________________________________________________________________________________\n",
      "leaky_re_lu_8 (LeakyReLU)       (None, 2, 2, 512)    0           batch_normalization_8[0][0]      \n",
      "__________________________________________________________________________________________________\n",
      "flatten_1 (Flatten)             (None, 2048)         0           leaky_re_lu_8[0][0]              \n",
      "__________________________________________________________________________________________________\n",
      "input_2 (InputLayer)            (None, 10)           0                                            \n",
      "__________________________________________________________________________________________________\n",
      "concatenate_2 (Concatenate)     (None, 2058)         0           flatten_1[0][0]                  \n",
      "                                                                 input_2[0][0]                    \n",
      "__________________________________________________________________________________________________\n",
      "dense_2 (Dense)                 (None, 512)          1054208     concatenate_2[0][0]              \n",
      "__________________________________________________________________________________________________\n",
      "dense_3 (Dense)                 (None, 1)            513         dense_2[0][0]                    \n",
      "==================================================================================================\n",
      "Total params: 5,365,121\n",
      "Trainable params: 5,363,201\n",
      "Non-trainable params: 1,920\n",
      "__________________________________________________________________________________________________\n"
     ]
    }
   ],
   "source": [
…
