…
    "generator.add(LeakyReLU(alpha=0.2))\n",
    "generator.add(BatchNormalization(momentum=0.8))\n",
    "\n",
    "# Output layer \n",
    "generator.add(Dense(img_dim, activation='tanh'))\n"
   ]
  },
  {
   "cell_type": "code",
   "execution_count": 8,
   "metadata": {},
   "outputs": [
    {
     "name": "stdout",
     "output_type": "stream",
     "text": [
      "_________________________________________________________________\n",
      "Layer (type)                 Output Shape              Param #   \n",
      "=================================================================\n",
      "dense_1 (Dense)              (None, 128)               12928     \n",
      "_________________________________________________________________\n",
      "leaky_re_lu_1 (LeakyReLU)    (None, 128)               0         \n",
      "_________________________________________________________________\n",
      "batch_normalization_1 (Batch (None, 128)               512       \n",
      "_________________________________________________________________\n",
      "dense_2 (Dense)              (None, 256)               33024     \n",
      "_________________________________________________________________\n",
      "leaky_re_lu_2 (LeakyReLU)    (None, 256)               0         \n",
      "_________________________________________________________________\n",
      "batch_normalization_2 (Batch (None, 256)               1024      \n",
      "_________________________________________________________________\n",
      "dense_3 (Dense)              (None, 512)               131584    \n",
      "_________________________________________________________________\n",
      "leaky_re_lu_3 (LeakyReLU)    (None, 512)               0         \n",
      "_________________________________________________________________\n",
      "batch_normalization_3 (Batch (None, 512)               2048      \n",
      "_________________________________________________________________\n",
      "dense_4 (Dense)              (None, 784)               402192    \n",
      "=================================================================\n",
      "Total params: 583,312\n",
      "Trainable params: 581,520\n",
      "Non-trainable params: 1,792\n",
      "_________________________________________________________________\n"
     ]
    }
   ],
   "source": [
    "# prints a summary representation of your model\n",
    "generator.summary()"
   ]
  },
  {
…
    "discriminator.add(Dense(512))\n",
    "discriminator.add(LeakyReLU(alpha=0.2))\n",
    "\n",
    "# Output layer\n",
    "discriminator.add(Dense(1, activation='sigmoid'))"
   ]
  },
  {
   "cell_type": "code",
   "execution_count": 10,
   "metadata": {},
   "outputs": [
    {
     "name": "stdout",
     "output_type": "stream",
     "text": [
      "_________________________________________________________________\n",
      "Layer (type)                 Output Shape              Param #   \n",
      "=================================================================\n",
      "dense_5 (Dense)              (None, 128)               100480    \n",
      "_________________________________________________________________\n",
      "leaky_re_lu_4 (LeakyReLU)    (None, 128)               0         \n",
      "_________________________________________________________________\n",
      "dense_6 (Dense)              (None, 256)               33024     \n",
      "_________________________________________________________________\n",
      "leaky_re_lu_5 (LeakyReLU)    (None, 256)               0         \n",
      "_________________________________________________________________\n",
      "dense_7 (Dense)              (None, 512)               131584    \n",
      "_________________________________________________________________\n",
      "leaky_re_lu_6 (LeakyReLU)    (None, 512)               0         \n",
      "_________________________________________________________________\n",
      "dense_8 (Dense)              (None, 1)                 513       \n",
      "=================================================================\n",
      "Total params: 265,601\n",
      "Trainable params: 265,601\n",
      "Non-trainable params: 0\n",
      "_________________________________________________________________\n"
     ]
    }
   ],
   "source": [
    "# prints a summary representation of your model\n",
    "discriminator.summary()"
   ]
  },
…
